model.pt (torch, 8293 bytes, 20 tensors)

embedder.model.weight f4 [4, 2]
0	0xbf48d562	-0.78450596
1	0xbe6d012f	-0.23144983
2	0x3f18fb68	0.59758615
3	0x3ede1b1c	0.43380058
4	0x3d9fde7c	0.078061074
5	0xbeaba3cf	-0.33523414
6	0x3e1c05fd	0.1523666
7	0x3e85c5fd	0.26127616

position_encoder.positional_encoding f4 [4, 4]
0	0x00000000	0.0
1	0x3f800000	1.0
2	0x00000000	0.0
3	0x3f800000	1.0
4	0x3f576aa4	0.84147096
5	0x3f0a5141	0.54030234
6	0x3b4f3d10	0.003162209
7	0x3f7fffac	0.999995
8	0x3f68c7b7	0.9092974
9	0xbed51133	-0.41614684
10	0x3bcf3ccc	0.006324386
11	0x3f7ffeb1	0.99998003
12	0x3e1081c3	0.14112
13	0xbf7d7026	-0.9899925
14	0x3c1b6d44	0.0094865
15	0x3f7ffd0d	0.999955

layer_norm.gamma f4 [4]
0	0xbdc59c96	-0.09649007
1	0x3e4e3a8a	0.20139518
2	0x3db99502	0.09061624
3	0xbdd07438	-0.10178417

layer_norm.beta f4 [4]
0	0x3dba3a04	0.09093097
1	0x3dbbbb72	0.09166612
2	0xbdb33279	-0.08749861
3	0xbde11309	-0.10989959

intrastock.layer_norm.gamma f4 [4]
0	0x3d845e39	0.06463284
1	0xbd414469	-0.04718438
2	0x3d238e9b	0.03993092
3	0xbd427dde	-0.047483318

intrastock.layer_norm.beta f4 [4]
0	0x3d8e1962	0.06938435
1	0xbd412029	-0.04714981
2	0xbd16b9f1	-0.03679842
3	0x3d4b229b	0.04959355

intrastock.ffn.model.0.weight f4 [16, 4]
0	0xbed0edc4	-0.408064
1	0x3edcac8f	0.43100402
2	0x3e17dd46	0.14830503
3	0x3d55576c	0.052085325
4	0x3ee74568	0.4517014
5	0x3eb65a7a	0.35615903
6	0xbe0c5287	-0.13703357
7	0xbdf50428	-0.11963683
8	0xbee2072c	-0.44146097
9	0x3ee0e58a	0.43925124
10	0xbeea929c	-0.4581498
11	0xbe246839	-0.16055383
12	0xbe76cfc4	-0.24102694
13	0xbe32a5d0	-0.17446065
14	0xbedd9db0	-0.4328437
15	0xbd388230	-0.04504603
16	0xbd1a15f0	-0.037618577
17	0xbd3bfa20	-0.045892835
18	0x3e5bc260	0.21460867
19	0x3ef3bcd8	0.47605014
20	0xbed449a1	-0.41462424
21	0xbebdc1de	-0.3706197
22	0xbcf97ba7	-0.03045447
23	0x3eb038db	0.34418377
24	0x3e41ba49	0.18918718
25	0xbec21731	-0.3790832
26	0xbef4edda	-0.47837716
27	0x3e885960	0.26630688
28	0x3ea559af	0.32294986
29	0x3dd74929	0.10512001
30	0xbec35090	-0.38147402
31	0x3da59366	0.08084755
32	0xbec40f8c	-0.3829311
33	0xbd8e45c0	-0.069468975
34	0x3e481dc8	0.1954261
35	0xbc9838e0	-0.018581808
36	0xbe375a58	-0.17905557
37	0xbea1fdec	-0.3163904
38	0xbe109acc	-0.1412155
39	0x3e55490c	0.20828646
40	0x3e3ed060	0.18634176
41	0xbe4acc3c	-0.19804472
42	0x3eeb6678	0.45976615
43	0xbd068d10	-0.03284937
44	0x3e6422d4	0.22278911
45	0x3ea6d2b0	0.32582617
46	0xbd529350	-0.05141002
47	0x3e55afc8	0.20867836
48	0xbed36cbd	-0.41293898
49	0xbe4ad06b	-0.19806068
50	0xbd9a6238	-0.07538265
51	0x3ebdd7f2	0.37078816
52	0x3f171693	0.5901882
53	0xbe5bcd1e	-0.21464965
54	0xbeaaf228	-0.33387876
55	0x3e483d66	0.19554672
56	0xbf16f89c	-0.589731
57	0xbeae4287	-0.3403513
58	0x3f0a6af4	0.5406945
59	0xbbdbab37	-0.00670376
60	0x3ec7d2d4	0.39028037
61	0xbefb578e	-0.49090236
62	0x3e402065	0.18762358
63	0x3e84a60e	0.2590794

intrastock.ffn.model.0.bias f4 [16]
0	0x3ee2497b	0.44196686
1	0x3eb80527	0.3594143
2	0xba9f7222	-0.0012164752
3	0xbe4602e4	-0.1933704
4	0xbe891cd2	-0.267798
5	0x3ee980d6	0.45606107
6	0xbb115568	-0.002217615
7	0x3e90b275	0.28261152
8	0xbdc59ef0	-0.096494555
9	0xbd9aa1c8	-0.075503886
10	0xbededcc2	-0.435278
11	0xbec122b4	-0.3772179
12	0x3ea9f457	0.3319423
13	0x3e04bd15	0.12962754
14	0x3dcbffab	0.09960874
15	0x3e07c574	0.13258916

intrastock.ffn.model.2.weight f4 [4, 16]
0	0xbdda0dab	-0.10647138
1	0xbc92779e	-0.017879304
2	0xbe432790	-0.1905806
3	0x3e71ac76	0.23600945
4	0xbcd66830	-0.026172727
5	0x3e740409	0.23829664
6	0x3e0ec564	0.13942486
7	0x3e5c8ac2	0.21537307
8	0x3e7ffe7e	0.24999425
9	0x3e44e55a	0.19228116
10	0xbe7aa446	-0.24476728
11	0xbdb20088	-0.086915076
12	0x3e712d29	0.23552383
13	0xbe032bff	-0.12809752
14	0x3e0a2140	0.13489246
15	0xbd546f72	-0.051864095
16	0x3e31817e	0.17334554
17	0x3de93d28	0.11388618
18	0xbd2ebfa2	-0.042663224
19	0xbe52c8b0	-0.20584369
20	0x3e6365d8	0.22206819
21	0x3e8fd40b	0.28091463
22	0xbd220780	-0.039557934
23	0x3dd86403	0.10565951
24	0xbe13e4d2	-0.14442757
25	0x3e60044e	0.21876642
26	0xbdff1d00	-0.12456703
27	0x3e4b3012	0.19842556
28	0xbbff6409	-0.0077939075
29	0x3e713858	0.2355665
30	0x3d6fe721	0.05857003
31	0x3e5befc1	0.21478178
32	0x3e0e736e	0.1391122
33	0x3e463f30	0.19360042
34	0xbd4efe5d	-0.05053555
35	0xbe307602	-0.17232516
36	0xbe223b06	-0.15842828
37	0x3c72decd	0.014823628
38	0xbc7e1519	-0.01550796
39	0xbe3fd7d9	-0.18734683
40	0xbde88ce8	-0.11355001
41	0xbd369540	-0.04457593
42	0x3e45be66	0.19310912
43	0x3e22bfec	0.15893525
44	0xbe02980a	-0.12753311
45	0xbd758cff	-0.059948917
46	0x3deac2ff	0.11462974
47	0xbe91f047	-0.2850363
48	0xbe6587b9	-0.22415055
49	0xbca8bc26	-0.020597529
50	0x3e177bcf	0.14793323
51	0xbe0d69f8	-0.13809955
52	0x3e1a90e0	0.15094328
53	0xbd132025	-0.035919327
54	0xbe6e19b3	-0.23251991
55	0x3d32b37a	0.043628193
56	0x3e46ff2a	0.19433275
57	0xbd006658	-0.031347603
58	0x3d90597c	0.07048318
59	0xbe3511aa	-0.1768252
60	0xbe5c017d	-0.21484943
61	0xbecbf9bb	-0.39838967
62	0xbe09d84b	-0.13461415
63	0xbeb43746	-0.3519842

intrastock.ffn.model.2.bias f4 [4]
0	0xbca07909	-0.019588964
1	0x3cc3c9ad	0.023899877
2	0xbd93287c	-0.07185456
3	0x3e0f3a75	0.13987143

interstock.layer_norm_1.gamma f4 [4]
0	0xbc5406b6	-0.012941053
1	0x3dfd776e	0.12376295
2	0xbdd2f8d8	-0.103013694
3	0xbe0d21df	-0.13782452

interstock.layer_norm_1.beta f4 [4]
0	0xbd37137e	-0.044696324
1	0x3db9d09c	0.09072992
2	0x3db1becc	0.0867897
3	0x3db34906	0.087541625

interstock.layer_norm_2.gamma f4 [4]
0	0x3e32e094	0.17468482
1	0x3c8abb10	0.016934901
2	0x3d4d5ae1	0.050135497
3	0xbcd4e3fd	-0.02598762

interstock.layer_norm_2.beta f4 [4]
0	0x3e01eae3	0.12687258
1	0x3d0ca303	0.034335148
2	0xbd6437e1	-0.055717353
3	0x3d671bb7	0.056422915

interstock.ffn.model.0.weight f4 [16, 4]
0	0xbe9092e5	-0.28237072
1	0xbc1c6a89	-0.009546884
2	0xbe92a554	-0.2864176
3	0xbf15157b	-0.582359
4	0x3ed8fae6	0.4237892
5	0xbedcbfe9	-0.43115166
6	0x3eef6c35	0.46762243
7	0x3ed39d85	0.41331115
8	0x3d895ed0	0.06707537
9	0x3e4e677e	0.20156667
10	0xbebaf904	-0.3651811
11	0xbeb8b87b	-0.36078247
12	0xbcb18870	-0.021671504
13	0xbe3938a7	-0.18088017
14	0x3e059ad9	0.13047351
15	0xbe9e2569	-0.30887917
16	0x3d30df05	0.043181438
17	0xbd897586	-0.06711869
18	0xbea34ae7	-0.31893083
19	0x3d42f0ee	0.04759305
20	0xbd5ec42d	-0.054386307
21	0x3e3ed1b6	0.18634686
22	0xbd9c4385	-0.07630066
23	0x3ea47385	0.32119384
24	0xbec0129e	-0.37514204
25	0x3eda1ac4	0.42598546
26	0xbeaece50	-0.3414178
27	0xbc7ac440	-0.015305579
28	0x3f044906	0.51673925
29	0xbe3e0288	-0.18555653
30	0x3ce0402b	0.027374348
31	0x3f1dfe97	0.617166
32	0xbe1ed208	-0.15509808
33	0x3dc46bc0	0.09590864
34	0xbe6447f4	-0.22293073
35	0xbead6076	-0.33862656
36	0x3eefe25a	0.4685238
37	0xbe3c8d85	-0.1841336
38	0xbeb41eb6	-0.3517968
39	0x3efe153b	0.49625573
40	0xbdedb1b8	-0.11606163
41	0x3e43c514	0.19118148
42	0xbeaabf22	-0.33348948
43	0xbec35dea	-0.38157588
44	0x3e2f0cad	0.17094679
45	0xbebe52cb	-0.3717254
46	0x3f117ac8	0.56827974
47	0x3e88c1dd	0.26710406
48	0x3e973f9e	0.29540724
49	0x3e27f254	0.16401035
50	0xbe8427c2	-0.25811583
51	0xbdc7fe18	-0.097652614
52	0xbe84718e	-0.25867885
53	0x3e62317c	0.2208919
54	0x3c8e8380	0.017396688
55	0xbe050c10	-0.12992883
56	0x3decc2e8	0.11560613
57	0x3cb0ca40	0.021580815
58	0xbdd87148	-0.10568482
59	0xbeea9c40	-0.45822334
60	0xbf093fd5	-0.53613025
61	0x3db1ea16	0.086872265
62	0x3e2bde6d	0.16784067
63	0x3ea679a1	0.3251467

interstock.ffn.model.0.bias f4 [16]
0	0x3ebc607e	0.36792368
1	0xbe1ba4ea	-0.15199628
2	0x3debbb85	0.11510376
3	0x3ed9a5a6	0.42509192
4	0x3ec7466d	0.38920918
5	0x3d4c4aab	0.049875896
6	0xbed5199c	-0.416211
7	0x3e1573cd	0.14594956
8	0xbe8c9ba4	-0.27462494
9	0x3e3b5de0	0.18297529
10	0xbe838164	-0.25684655
11	0x3ec2ed4b	0.38071665
12	0xbef82082	-0.48462301
13	0xbd844580	-0.064585686
14	0xbea53ad0	-0.32271433
15	0x3f067dff	0.52536005

interstock.ffn.model.2.weight f4 [4, 16]
0	0xbd22cb4e	-0.039744668
1	0xbe0c83e4	-0.13722187
2	0x3e7ad5d4	0.24495631
3	0x3e3c4fba	0.18389788
4	0xba8a8dd6	-0.0010570835
5	0x3e228236	0.15869984
6	0xbe1567d4	-0.14590389
7	0x3e26d417	0.16291843
8	0x3c1fdbe0	0.009757012
9	0x3e4d3913	0.20041303
10	0x3e24dff2	0.16101053
11	0xbe1a3e35	-0.15062793
12	0x3e5c0950	0.21487927
13	0xba8fbb00	-0.0010965765
14	0xbe6ee934	-0.23331147
15	0x3dfc518c	0.12320241
16	0xbe1eeac6	-0.15519246
17	0xbc9c72b9	-0.019097673
18	0x3e8f5c1a	0.27999955
19	0xbe09786e	-0.13424847
20	0xbd637a58	-0.055536598
21	0xbd07f89b	-0.033196073
22	0xbd0face8	-0.035077006
23	0x3dc1d5c1	0.094645984
24	0xbdea66ec	-0.11445412
25	0x3e321867	0.17392121
26	0x3d3c54d0	0.04597932
27	0x3d7ddb6c	0.061976835
28	0x3a45ac00	0.00075405836
29	0xbe2b9f84	-0.16760069
30	0xbd2f0d50	-0.042737305
31	0x3e0cb1ac	0.13739651
32	0xbe09674a	-0.13418308
33	0x3c25a852	0.0101109315
34	0x3deccfde	0.11563085
35	0x3d579b22	0.05263818
36	0xbe218541	-0.15773489
37	0xbd5b5c0e	-0.053554587
38	0x3de60168	0.11230737
39	0x3e3d5a1b	0.18491404
40	0xbda5f038	-0.08102459
41	0x3d96b086	0.07357888
42	0x3a71aa00	0.00092187524
43	0xbd907a25	-0.07054547
44	0xbe4d0c28	-0.20024168
45	0xbe0ae5a2	-0.1356416
46	0x3e7f285c	0.2491774
47	0xbe639b50	-0.22227216
48	0xbe00ff24	-0.12597328
49	0xbdacf865	-0.08445815
50	0xbe4da306	-0.2008172
51	0xbe699898	-0.22812116
52	0xbe38ff0e	-0.18066046
53	0xbe93e418	-0.2888496
54	0x3c576860	0.0131474435
55	0x3dbe6611	0.09296811
56	0x3d253600	0.0403347
57	0xbe84e7b5	-0.25958028
58	0xbe34df86	-0.17663392
59	0x3e0fa34d	0.14027138
60	0xba2cb400	-0.00065881014
61	0x3d9c36cc	0.07627639
62	0x3e230588	0.15920079
63	0xbe617341	-0.22016622

interstock.ffn.model.2.bias f4 [4]
0	0xbd7766bb	-0.060400706
1	0x3e5a6221	0.21326496
2	0xbd8025f0	-0.06257236
3	0x3d66598c	0.056237742

temporal_attention.linear.weight f4 [4, 4]
0	0x3e3165be	0.17323968
1	0x3c6b853d	0.014375028
2	0x3bdf44e3	0.006813632
3	0xbea500db	-0.32227215
4	0x3d12fab2	0.035883613
5	0x3e7dfa21	0.24802448
6	0x3ed074f4	0.40714228
7	0x3e2841c1	0.16431333
8	0xbdd1ff84	-0.10253814
9	0xbe95f143	-0.2928563
10	0x3d8b6573	0.06806459
11	0xbe6effda	-0.23339787
12	0xbee124d3	-0.43973407
13	0xbda9ccd2	-0.082910195
14	0xbf0f3722	-0.559435
15	0x3e334185	0.17505462

predictor.linear.weight f4 [1, 4]
0	0x3f0105a6	0.50399244
1	0x3e40e410	0.18836999
2	0xbf0f178d	-0.5589531
3	0xbe228a22	-0.15873006
