model.pt (torch, 8923 bytes, 20 tensors)

embedder.model.weight f4 [4, 1]
0	0x3e203233	0.1564415
1	0x3cdb5d36	0.026777845
2	0xbf932296	-1.149493
3	0xbe1201bd	-0.14258476

position_encoder.positional_encoding f4 [4, 4]
0	0x00000000	0.0
1	0x3f800000	1.0
2	0x00000000	0.0
3	0x3f800000	1.0
4	0x3f576aa4	0.84147096
5	0x3f0a5141	0.54030234
6	0x3b4f3d10	0.003162209
7	0x3f7fffac	0.999995
8	0x3f68c7b7	0.9092974
9	0xbed51133	-0.41614684
10	0x3bcf3ccc	0.006324386
11	0x3f7ffeb1	0.99998003
12	0x3e1081c3	0.14112
13	0xbf7d7026	-0.9899925
14	0x3c1b6d44	0.0094865
15	0x3f7ffd0d	0.999955

layer_norm.gamma f4 [4]
0	0xbdb72260	-0.089421034
1	0xbdcd2d73	-0.100184344
2	0xbd912f50	-0.07089102
3	0x3da19df4	0.07891455

layer_norm.beta f4 [4]
0	0xbdac763a	-0.084209874
1	0xbdad3cc0	-0.08458853
2	0x3d8cdf3b	0.06878515
3	0x3da2acfc	0.079431504

intrastock.layer_norm.gamma f4 [4]
0	0x3d77ce1d	0.0604993
1	0xbd8e0430	-0.069343925
2	0xbd80cec2	-0.06289436
3	0xbe875214	-0.26429808

intrastock.layer_norm.beta f4 [4]
0	0xbd80150e	-0.06254016
1	0x3d8cbf50	0.068724275
2	0xbd849b7c	-0.06474969
3	0xbe867c0d	-0.26266518

intrastock.ffn.model.0.weight f4 [16, 4]
0	0xbd04090f	-0.0322352
1	0xbea8cdda	-0.32969552
2	0x3e53a2db	0.20667593
3	0x3ea2155d	0.31656924
4	0xbdf441e8	-0.11926633
5	0xbef389d4	-0.47566092
6	0xbe4eebd0	-0.20207143
7	0x3d81e038	0.063415945
8	0xbd6366a0	-0.055517793
9	0x3d9647b0	0.07337892
10	0xbeecd258	-0.4625423
11	0x3ee523f8	0.44754004
12	0x3e205278	0.1565646
13	0x3decc510	0.11561024
14	0x3edf0eb4	0.43565905
15	0x3eeb5016	0.45959538
16	0x3ed25efc	0.41088092
17	0x3e836aa8	0.2566731
18	0x3c7ff140	0.015621483
19	0x3e9be2fe	0.3044662
20	0xbeb2592a	-0.34833652
21	0xbe1b9af8	-0.15195835
22	0x3e3bdcc8	0.1834594
23	0x3dd62798	0.10456771
24	0xbf07dfc1	-0.53075796
25	0x3ef6d4a7	0.48209116
26	0xbed92683	-0.42412195
27	0xbf3c0b69	-0.7345491
28	0xbd9d54cd	-0.0768219
29	0x3f0bd4d7	0.5462164
30	0xbe9149f8	-0.28376746
31	0x3c71c530	0.014756486
32	0xbe4d6adc	-0.20060295
33	0x3d5d10c0	0.053971052
34	0x3e3ec4bc	0.18629736
35	0x3e49ac34	0.19694597
36	0x3e635d74	0.22203618
37	0xbd4661b0	-0.048433006
38	0xbbe09880	-0.006854117
39	0x3dbbef50	0.091765046
40	0xbe52e188	-0.20593846
41	0x3e9cc3d6	0.3061816
42	0x3e96037e	0.2929954
43	0xbe847a66	-0.25874633
44	0xbec31468	-0.38101506
45	0xbe8c3b22	-0.27388865
46	0xbedabd62	-0.42722613
47	0xbeeaa9f2	-0.45832783
48	0xbe47d370	-0.19514251
49	0x3eca0e62	0.39464098
50	0x3e9df20f	0.3084874
51	0x3e317ade	0.17332026
52	0x3e3c599c	0.18393558
53	0x3ea7bdc4	0.32761967
54	0x3e064144	0.13110834
55	0x3eca956e	0.3956713
56	0x3e3dd88e	0.1853964
57	0xbea5727c	-0.32313907
58	0x3ec3f00c	0.3826908
59	0x3d35bbde	0.044368617
60	0xbf00199f	-0.50039095
61	0x3ec1053b	0.37699303
62	0x3e579355	0.21052296
63	0xbe1c257e	-0.15248677

intrastock.ffn.model.0.bias f4 [16]
0	0x3e42f50e	0.19038793
1	0xbe5dba70	-0.21653152
2	0xbc920fe0	-0.017829835
3	0xbed06ede	-0.40709585
4	0xbcba0800	-0.022708893
5	0xbd885418	-0.066566646
6	0x3cc5c642	0.024142388
7	0x3e895daf	0.26829287
8	0xbdc76df0	-0.09737766
9	0xbda55dc8	-0.08074528
10	0xbedd506a	-0.43225414
11	0xbee43a28	-0.4457562
12	0x3e9cbea1	0.30614188
13	0xbeb18fa2	-0.34679896
14	0x3d7e5619	0.062093828
15	0x3d7c935a	0.061663963

intrastock.ffn.model.2.weight f4 [4, 16]
0	0xbe44b562	-0.19209817
1	0x3b144f00	0.0022630095
2	0x3e0cd8d4	0.13754588
3	0xbe11c5a2	-0.14235547
4	0xbcef3580	-0.029200315
5	0xbe6f3e28	-0.23363554
6	0x3eccac8b	0.3997539
7	0xbe1e8135	-0.15478976
8	0xbd3f1e18	-0.04665956
9	0x3c9d2dd0	0.019186884
10	0x3dcd60f8	0.10028261
11	0xbe1a7908	-0.15085232
12	0x3d9df423	0.07712581
13	0xbde0aba0	-0.10970235
14	0xbb453349	-0.0030090383
15	0xbe831f5d	-0.25609866
16	0x3ce44898	0.027866647
17	0xbe06ef52	-0.13177231
18	0xbe7bc376	-0.24586281
19	0xbe116c6e	-0.14201519
20	0x3dae7cf8	0.0851993
21	0xbd629fa8	-0.05532804
22	0x3d8252f5	0.06363479
23	0x3d89c9cc	0.06727943
24	0xbe7cf220	-0.24701738
25	0xbe255e76	-0.16149315
26	0x3dd5dc48	0.10442406
27	0xbe10926e	-0.14118358
28	0xbdcbb9a5	-0.09947518
29	0xbd0e9e98	-0.034819216
30	0x3e11e5ab	0.14247768
31	0xbe0b0a69	-0.1357819
32	0xbcf71002	-0.030159
33	0x3ddd95c0	0.10819578
34	0xbd91f2d0	-0.07126391
35	0x3de62b08	0.11238676
36	0xbb5c2a00	-0.003359437
37	0xbd56c4b0	-0.05243367
38	0x3e9e1c76	0.3088109
39	0xbc3e7097	-0.011623523
40	0x3e07e67c	0.13271517
41	0x3c34e0e0	0.0110399425
42	0xbe557616	-0.20845827
43	0x3c38ed80	0.011287093
44	0xbe418a46	-0.18900403
45	0xbe5c5678	-0.2151736
46	0xbd8653c0	-0.06558943
47	0x3eb8bebb	0.36083016
48	0xbd3a74ab	-0.04552142
49	0xbb3c3000	-0.0028715134
50	0xbe2b6da8	-0.1674105
51	0xbe061cd6	-0.13096938
52	0x3e522f5c	0.20525879
53	0xbc68cb80	-0.014208674
54	0x3e1f8042	0.1557627
55	0x3e93222f	0.28737018
56	0x3e526516	0.20546374
57	0x3e320fd8	0.17388856
58	0x3e1b7af4	0.15183622
59	0x3e2afcd0	0.16698003
60	0xbd26f0ce	-0.040756993
61	0x3e1535e4	0.14571339
62	0xbcf0c5e0	-0.02939123
63	0x3cc81882	0.024425749

intrastock.ffn.model.2.bias f4 [4]
0	0xbe62fb6c	-0.22166222
1	0xbe1a1600	-0.15047455
2	0xbd9e9c99	-0.077447124
3	0xbdbec860	-0.09315562

interstock.layer_norm_1.gamma f4 [4]
0	0xbdfe76f1	-0.1242503
1	0x3ecee641	0.40410045
2	0x3e5a9191	0.21344592
3	0x3e38edb6	0.1805943

interstock.layer_norm_1.beta f4 [4]
0	0x3d9d44b3	0.07679119
1	0xbe441460	-0.19148397
2	0x3d76a227	0.060213234
3	0x3da3be03	0.07995226

interstock.layer_norm_2.gamma f4 [4]
0	0x3dc30a7e	0.095234856
1	0xbe85dad7	-0.26143524
2	0x3dc60f8a	0.096709326
3	0xbd4adf60	-0.049529433

interstock.layer_norm_2.beta f4 [4]
0	0xbc535cad	-0.012900514
1	0x3d7b704c	0.06138639
2	0x3d9cd175	0.07657138
3	0x3bcb39d0	0.00620196

interstock.ffn.model.0.weight f4 [16, 4]
0	0xbec2ad98	-0.38023067
1	0xbe0c2494	-0.13685828
2	0x3e2f9c58	0.17149484
3	0xbe3915cc	-0.18074721
4	0xbd346280	-0.04403925
5	0x3ebec300	0.37258148
6	0xbef0322c	-0.46913278
7	0x3da23fb0	0.07922304
8	0xbe8e110c	-0.2774738
9	0x3e91b60e	0.2845921
10	0xbe62d940	-0.22153187
11	0x3deba458	0.115059555
12	0x3ee86d9a	0.4539612
13	0x3e328bf0	0.17436194
14	0xbed4ff74	-0.41601145
15	0xbeda7a9c	-0.4267167
16	0x3e5f17cf	0.21786426
17	0x3ec66658	0.38749957
18	0x3e2e033e	0.16993424
19	0xbe3dc42e	-0.18531868
20	0x3c9f60d6	0.019455355
21	0x3deda815	0.11604325
22	0xbf1a0925	-0.60170203
23	0x3e33515a	0.17511502
24	0xbd138c70	-0.036022604
25	0xbe969554	-0.29410803
26	0x3edb6fd6	0.42858762
27	0xbe68d188	-0.2273618
28	0x3ead521a	0.338517
29	0x3ea2c972	0.31794316
30	0xbed63ef8	-0.41844916
31	0x3e5b26d0	0.21401525
32	0x3e67fe4d	0.22655602
33	0xbc973438	-0.018457517
34	0xbf229cbe	-0.6352042
35	0x3e830da6	0.2559635
36	0x3ef5f14f	0.48035666
37	0xbf30605b	-0.68897027
38	0xbebba270	-0.36647367
39	0xbef4892a	-0.47760898
40	0xbe9f79b1	-0.3114753
41	0x3dbddbfa	0.09270473
42	0x3d8e6aec	0.069539875
43	0x3e47af30	0.19500422
44	0xbe54c62c	-0.20778722
45	0xbe98e01e	-0.29858488
46	0x3e794c5c	0.24345535
47	0x3ef3f592	0.47648293
48	0xbed153a9	-0.4088414
49	0x3f1b66f5	0.60703975
50	0xbeaf6a3f	-0.34260747
51	0xbeb15341	-0.3463383
52	0xbd4b4504	-0.049626365
53	0xbe6286d3	-0.22121744
54	0xbe0d8026	-0.13818416
55	0xbee9aec9	-0.45641163
56	0x3e686499	0.22694625
57	0xbda20e80	-0.07912922
58	0x3d06f839	0.032951567
59	0x3e9044fd	0.28177634
60	0xbe7e2fd9	-0.2482294
61	0xbeffe14e	-0.4997658
62	0xbf1852e5	-0.59501487
63	0x3ed7f493	0.42178783

interstock.ffn.model.0.bias f4 [16]
0	0xbe85721e	-0.26063627
1	0xbefcccd4	-0.4937502
2	0xbe2df310	-0.16987252
3	0xbe5995dc	-0.21248573
4	0x3ec9aa38	0.3938768
5	0x3e31fcb5	0.17381556
6	0xbe37cf3c	-0.17950147
7	0xbef758ac	-0.4830984
8	0x3ec6a3b8	0.38796782
9	0x3ee1500f	0.44006392
10	0x3f00f865	0.5037902
11	0xbebb0332	-0.36525875
12	0x3ecc15e1	0.39860442
13	0x3e71f94f	0.2363026
14	0x3e2fdd15	0.1717418
15	0x3e47d705	0.19515617

interstock.ffn.model.2.weight f4 [4, 16]
0	0x3e32b0a2	0.17450193
1	0xbc29d520	-0.010365754
2	0x3deebcd8	0.11657113
3	0xbcba1f40	-0.02271998
4	0xbe49f45a	-0.19722119
5	0xbde3e3a6	-0.11127405
6	0xbe712658	-0.23549783
7	0xbdbb8624	-0.09156445
8	0x3e3e4392	0.18580464
9	0x3d17ae83	0.03703166
10	0x3ddbb22b	0.10727342
11	0xbd305678	-0.043051213
12	0x3e1a116e	0.15045711
13	0x3de60775	0.11231891
14	0xba8986c7	-0.0010492437
15	0xbdeae3a4	-0.114692
16	0xbe3ca2ce	-0.1842148
17	0xbca6e690	-0.020373613
18	0xbdd5b7b4	-0.10435429
19	0x3d58ba50	0.052912056
20	0xbd3d83fd	-0.046268452
21	0xbe1be8c2	-0.15225509
22	0x3e48d9ce	0.19614336
23	0x3e0325a0	0.12807322
24	0x3d385daa	0.0450112
25	0xbe54f76b	-0.20797507
26	0x3dccd720	0.10001969
27	0x3de2369c	0.11045572
28	0x3cab2f14	0.020896472
29	0x3dd35970	0.10319793
30	0xbe403c0c	-0.18772906
31	0x3d4c7115	0.04991253
32	0x3e21b160	0.1579032
33	0x3e680864	0.22659451
34	0x3e7b6c7c	0.24553102
35	0x3dfd6790	0.123732686
36	0x3d714e66	0.058912657
37	0xbd569df9	-0.05239675
38	0x3e14a7ac	0.14517087
39	0x3e639d74	0.22228032
40	0xbd57f47f	-0.052723404
41	0xbc23bb38	-0.009993367
42	0x3e99914e	0.2999367
43	0x3d9de588	0.07709795
44	0xbb5fa621	-0.003412612
45	0x3d28c8b2	0.041207023
46	0x3df99993	0.12187495
47	0xbd18421d	-0.037172426
48	0x3e4a5940	0.19760609
49	0x3d599130	0.053116977
50	0xbe0351a6	-0.12824115
51	0x3d9c6b84	0.076376945
52	0xbe82e50e	-0.2556538
53	0x3e09e006	0.13464364
54	0xbe737e56	-0.23778662
55	0xbd5426a8	-0.051794678
56	0x3e06c82d	0.13162299
57	0x3d8f32fc	0.069921464
58	0x3e7129ea	0.23551145
59	0xbdbb92c0	-0.0915885
60	0xbe206fb2	-0.15667608
61	0x3c0a3c0c	0.008437168
62	0xbcfa6437	-0.030565364
63	0x3d120f92	0.03565938

interstock.ffn.model.2.bias f4 [4]
0	0xbe7086e0	-0.2348895
1	0xbe202ce6	-0.15642127
2	0xbe01f4ae	-0.12690994
3	0x3e16c5ef	0.14723943

temporal_attention.linear.weight f4 [4, 4]
0	0xbd7f10e0	-0.062271953
1	0x3ea05427	0.31314203
2	0xbeadcfc6	-0.3394758
3	0xbcf17a16	-0.02947716
4	0xbeaf86d8	-0.34282565
5	0x3e7d5450	0.24739194
6	0xbeb3ac5c	-0.35092437
7	0x3eea24d7	0.45731232
8	0xbdef778d	-0.116927244
9	0xbebc08b4	-0.3672539
10	0xbc161fc1	-0.009162844
11	0xbd84a583	-0.06476881
12	0x3ebc34bd	0.36758986
13	0xbe89fb83	-0.269497
14	0x3e20a411	0.15687586
15	0x3d0ec804	0.03485872

predictor.linear.weight f4 [1, 4]
0	0xbeceb06b	-0.4036897
1	0xbeb0658f	-0.34452483
2	0x3ea74eb3	0.3267723
3	0x3ee8e288	0.4548533
