model.pt (torch, 8923 bytes, 20 tensors)

embedder.model.weight f4 [4, 1]
0.34899718 0.39790165 0.10981314 0.43733278
00000000: c2af b23e c4b9 cb3e b6e5 e03d 15ea df3e

position_encoder.positional_encoding f4 [4, 4]
0.0 1.0 0.0 1.0 0.84147096 0.54030234 0.003162209 0.999995
0.9092974 -0.41614684 0.006324386 0.99998003 0.14112 -0.9899925 0.0094865 0.999955
00000000: 0000 0000 0000 803f 0000 0000 0000 803f
00000010: a46a 573f 4151 0a3f 103d 4f3b acff 7f3f
00000020: b7c7 683f 3311 d5be cc3c cf3b b1fe 7f3f
00000030: c381 103e 2670 7dbf 446d 1b3c 0dfd 7f3f

layer_norm.gamma f4 [4]
0.06257496 -0.10181626 0.08279637 -0.083931334
00000000: 4d27 803d 0b85 d0bd 2591 a93d 31e4 abbd

layer_norm.beta f4 [4]
0.074207865 0.11839892 -0.07496948 -0.08316055
00000000: 4bfa 973d 227b f23d 9989 99bd 1450 aabd

intrastock.layer_norm.gamma f4 [4]
-0.070638336 -0.061268967 0.059457835 -0.059745375
00000000: d5aa 90bd 2bf5 7abd 0f8a 733d 91b7 74bd

intrastock.layer_norm.beta f4 [4]
-0.061888322 -0.0718888 -0.059055 0.058057293
00000000: 9c7e 7dbd 6f3a 93bd a8e3 71bd 7ccd 6d3d

intrastock.ffn.model.0.weight f4 [16, 4]
-0.40819675 -0.1774875 0.11527026 -0.2535355 0.33873188 0.4050088 -0.23046671 -0.340479
0.47257823 0.035208106 0.067548156 0.12544465 0.48689267 0.34777898 0.34695548 -0.35567933
0.35320485 -0.37550187 0.037323773 -0.051226377 0.2779048 -0.17624229 0.0029328563 -0.31991097
-0.3075922 0.14497435 0.45857894 0.22073007 0.32753974 0.06238786 -0.25324163 -0.0921131
-0.21008748 -0.22043441 -0.4323729 0.008433314 -0.47683614 0.38147122 -0.1200915 -0.12543106
-0.2932298 0.14495769 -0.52316946 0.09030762 0.08613497 -0.32390523 0.44436747 -0.039421737
-0.122094214 -0.37573004 -0.118810415 -0.44352698 -0.4665916 -0.37959856 0.26304817 0.007953525
-0.094312675 -0.5398453 -0.27073464 0.4527082 -0.55952626 -0.47512904 0.26119605 0.17762712
00000000: 2aff d0be 48bf 35be d012 ec3d 68cf 81be
00000010: 446e ad3e 505d cf3e 77ff 6bbe 4353 aebe
00000020: c6f5 f13e 6036 103d b056 8a3d 9074 003e
00000030: ff49 f93e 1610 b23e 26a4 b13e 9a1b b6be
00000040: 44d7 b43e c841 c0be d0e0 183d c0d2 51bd
00000050: 8a49 8e3e dc78 34be 2a35 403b 5fcb a3be
00000060: ba7c 9dbe 2874 143e dcca ea3e 1007 623e
00000070: 4ab3 a73e 6a8a 7f3d e3a8 81be cba5 bcbd
00000080: 2c21 57be 8fb9 61be fb5f ddbe e22b 0a3c
00000090: de23 f4be 3250 c33e 88f2 f5bd 0071 00be
000000a0: 3722 96be ca6f 143e 6fee 05bf 34f3 b83d
000000b0: 8867 b03d e8d6 a5be 2284 e33e b078 21bd
000000c0: 880c fabd b05f c0be e052 f3bd f815 e3be
000000d0: 18e5 eebe be5a c2be 40ae 863e 804f 023c
000000e0: 0127 c1bd 4d33 0abf bb9d 8abe 5fc9 e73e
000000f0: 1d3d 0fbf 1d44 f3be 7dbb 853e e2e3 353e

intrastock.ffn.model.0.bias f4 [16]
-0.38371652 0.1843932 -0.23190534 0.34156984 -0.084061444 0.35224777 -0.4826122 0.037930198
0.2541234 -0.25226688 0.29870835 -0.305794 -0.17708021 -0.39525145 0.060982164 0.02897549
00000000: 7e76 c4be 92d1 3c3e 9878 6dbe 3ee2 ae3e
00000010: 6828 acbd d259 b43e f218 f7be b25c 1b3d
00000020: 761c 823e 2029 81be 4df0 983e 0891 9cbe
00000030: 8454 35be 665e cabe 6fc8 793d 025e ed3c

intrastock.ffn.model.2.weight f4 [4, 16]
0.24413943 -0.12453581 0.08728191 0.16599666 -0.134788 -0.11610496 -0.18875569 0.13852446
0.2658316 0.02324143 -0.05474084 0.1563395 -0.056418717 0.026988 0.08664873 -0.2108318
-0.043896854 0.00035038535 0.08685556 -0.10955563 0.2355203 0.04915376 0.013901472 0.12428378
-0.059627492 -0.18146718 0.27180833 -0.08399889 -0.080723286 0.010779589 0.061984856 0.20234494
-0.12529829 0.19017047 0.15640822 -0.009737095 -0.23856616 0.1350371 -0.007107228 0.17823745
-0.13735035 0.20157322 -0.26211143 -0.09974405 -0.18922359 0.042937487 -0.24652573 -0.29003435
-0.022597015 -0.24588604 -0.09031084 0.051528834 -0.08838573 0.1641777 0.16960111 -0.010084106
-0.003114212 0.18384248 -0.2777994 -0.10824239 0.14344412 0.14265215 -0.23909928 0.14916205
00000000: b0ff 793e a10c ffbd dcc0 b23d 07fb 293e
00000010: de05 0abe 70c8 edbd 2c49 41be 5bd9 0d3e
00000020: 141b 883e d064 be3c ee37 60bd 7617 203e
00000030: 5017 67bd f015 dd3c e474 b13d 4be4 57be
00000040: 30cd 33bd edb3 b739 54e1 b13d b45e e0bd
00000050: 3c2c 713e 7455 493d 00c3 633c 7f88 fe3d
00000060: f53b 74bd 88d2 39be 762a 8b3e 9c07 acbd
00000070: 4052 a5bd e09c 303c d5e3 7d3d 8333 4f3e
00000080: 324e 00be 0cbc 423e 7a29 203e 5688 1fbc
00000090: b04a 74be 2a47 0a3e c0e3 e8bb e183 363e
000000a0: 92a5 0cbe 3669 4e3e 7833 86be 9c46 ccbd
000000b0: d4c3 41be 38df 2f3d 3e71 7cbe 627f 94be
000000c0: 601d b9bc 8dc9 7bbe e4f4 b8bd e60f 533d
000000d0: 9403 b5bd 331e 283e eaab 2d3e ce37 25bc
000000e0: cf17 4cbb 3441 3c3e b93b 8ebe 30ae ddbd
000000f0: 04e3 123e 6813 123e 71d6 74be f0bd 183e

intrastock.ffn.model.2.bias f4 [4]
0.2143975 0.2288102 0.12718973 -0.24812962
00000000: 058b 5b3e 394d 6a3e 063e 023e b115 7ebe

interstock.layer_norm_1.gamma f4 [4]
0.08866789 -0.09472293 -0.02120448 0.054638878
00000000: 8397 b53d 18fe c1bd 05b5 adbc 04cd 5f3d

interstock.layer_norm_1.beta f4 [4]
0.06476986 -0.069658004 0.07875142 -0.055026766
00000000: 0fa6 843d dba8 8ebd 6d48 a13d bf63 61bd

interstock.layer_norm_2.gamma f4 [4]
-0.07040719 -0.11850876 0.032853622 -0.053211764
00000000: a531 90bd b9b4 f2bd 8591 063d 94f4 59bd

interstock.layer_norm_2.beta f4 [4]
-0.057336215 -0.07182029 -0.05576668 0.0642451
00000000: 61d9 6abd 8416 93bd 9a6b 64bd ef92 833d

interstock.ffn.model.0.weight f4 [16, 4]
-0.16388321 -0.050034165 0.11199969 0.021554112 0.47701544 -0.017781198 -0.011342883 -0.44170117
-0.34186292 0.43164432 0.3161537 -0.29631597 -0.51030564 -0.13490741 -0.4397791 0.23793526
0.20855945 0.16372049 -0.24256253 0.43705946 -0.2000696 0.1355806 -0.30780935 -0.4998446
0.1380822 0.3265372 0.067034185 0.4016847 0.08119415 0.59516734 -0.19134055 -0.38636547
-0.0045934385 -0.12699631 0.058559023 0.15994923 0.2539094 0.45609498 0.08571452 -0.21214038
0.12451345 -0.25407225 -0.23064625 0.24125278 -0.46549898 0.46931696 -0.1384328 0.38854635
0.18799077 -0.34523383 -0.2852611 0.36389118 0.66720647 0.35803178 0.07716401 -0.41340032
-0.026842713 0.04512334 -0.21127331 0.4509704 0.049503267 0.10459447 -0.024748504 -0.4890144
00000000: 00d1 27be a0f0 4cbd 1860 e53d 4092 b03c
00000010: 5e3b f43e e0a9 91bc 80d7 39bc a826 e2be
00000020: a808 afbe 7c00 dd3e e6de a13e bab6 97be
00000030: 64a3 02bf 2b25 0abe ba2a e1be 4da5 733e
00000040: 9c90 553e 58a6 273e 5062 78be 42c6 df3e
00000050: 0cdf 4cbe a4d5 0a3e 3099 9dbe a2eb ffbe
00000060: 6c65 0d3e e22f a73e 3849 893d 9ea9 cd3e
00000070: 1e49 a63d e35c 183f c7ee 43be b2d1 c5be
00000080: 8e84 96bb 520b 02be 96db 6f3d bbc9 233e
00000090: 6a00 823e 4885 e93e 188b af3d 543b 59be
000000a0: e800 ff3d c215 82be 882e 6cbe f80a 773e
000000b0: e255 eebe 504a f03e 54c1 0dbe 8cef c63e
000000c0: a780 403e 7dc2 b0be be0d 92be f24f ba3e
000000d0: 0bce 2a3f f14f b73e 2a08 9e3d 35a9 d3be
000000e0: 40e5 dbbc 40d3 383d 0858 58be 98e5 e63e
000000f0: f0c3 4a3d a035 d63d 60bd cabc 1860 fabe

interstock.ffn.model.0.bias f4 [16]
-0.28253853 -0.30757248 -0.103381515 0.19270845 -0.17095697 -0.13560295 -0.12581486 0.31879902
0.08631423 -0.23469323 -0.1771369 -0.27815437 -0.14690904 0.43146604 -0.13509518 -0.25511146
00000000: e4a8 90be 247a 9dbe b0b9 d3bd 5d55 453e
00000010: 580f 2fbe 80db 0abe 9cd5 00be a039 a33e
00000020: 84c5 b03d 6c53 70be 6063 35be 406a 8ebe
00000030: 536f 16be 1ee9 dc3e 6456 0abe f89d 82be

interstock.ffn.model.2.weight f4 [4, 16]
-0.038967967 -0.15966526 0.001119554 -0.02278664 0.2214599 -0.11250946 -0.16828614 0.19034296
-0.19421776 -0.17948267 0.11134061 0.04443544 0.18806325 0.25698608 0.106312364 0.06481728
0.059756815 -0.10890883 -0.07159871 -0.09997256 -0.24127543 -0.15519485 -0.1783863 -0.11031692
0.009583889 -0.021786243 0.16264912 -0.24286854 0.08909576 0.19934922 0.18876675 0.17765063
-0.23945925 0.0037943125 0.10899624 -0.25497627 0.19088879 -0.21197325 -0.07423955 0.052431904
-0.18704648 -0.08572039 -0.12563244 0.07202837 -0.046133302 0.18477815 0.013477713 0.06261307
-0.23663631 -0.19625744 0.16861618 -0.2980404 -0.19990158 0.2119076 0.07780719 -0.2191007
-0.07642539 0.029693782 -0.0664027 0.19981185 0.003401341 -0.2708916 0.233295 -0.016029716
00000000: e09c 1fbd 4a7f 23be 00be 923a 0cab babc
00000010: 62c6 623e 5c6b e6bd 3453 2cbe 44e9 423e
00000020: 05e1 46be 4eca 37be 8c06 e43d f001 363d
00000030: a793 403e ae93 833e 4cba d93d ecbe 843d
00000040: 90c3 743d 980b dfbd 58a2 92bd 6abe ccbd
00000050: e810 77be 66eb 1ebe e6aa 36be d6ed e1bd
00000060: be05 1d3c 1079 b2bc 7e8d 263e 88b2 78be
00000070: d677 b63d 3422 4c3e 124c 413e 0cea 353e
00000080: ce34 75be 00aa 783b 6c39 df3d 408c 82be
00000090: 5a78 433e 840f 59be e80a 98bd d6c2 563d
000000a0: 1d89 3fbe 2c8e afbd caa5 00be 9c83 933d
000000b0: 46f6 3cbd 7c36 3d3e a0d1 5c3c 483b 803d
000000c0: ca50 72be b6f7 48be b8a9 2c3e c098 98be
000000d0: 00b3 4cbe 4efe 583e 6059 9f3d ef5b 60be
000000e0: ea84 9cbd 6040 f33c 24fe 87bd 7a9b 4c3e
000000f0: 08e9 5e3b 4eb2 8abe e2e4 6e3e c050 83bc

interstock.ffn.model.2.bias f4 [4]
0.2762733 0.20984595 -0.034668 -0.09768736
00000000: b273 8d3e dbe1 563e 0800 0ebd 5010 c8bd

temporal_attention.linear.weight f4 [4, 4]
0.084424086 -0.23952918 0.4363461 -0.32014552 -0.13934918 0.3351393 0.29538533 0.05557345
0.022383569 0.056298856 0.07140022 -0.33756363 -0.28614572 -0.38381743 0.25204504 -0.30433416
00000000: 89e6 ac3d 2347 75be c268 df3e 1dea a3be
00000010: 8db1 0ebe 6197 ab3e bf3c 973e fca0 633d
00000020: bf5d b73c a199 663d 473a 923d 24d5 acbe
00000030: b181 92be b883 c4be 0c0c 813e b0d1 9bbe

predictor.linear.weight f4 [1, 4]
0.17237644 0.12187048 -0.48049587 -0.13665743
00000000: 7383 303e 3b97 f93d 8e03 f6be edef 0bbe
